Backend/AI Model/GNN/gnn_context_engine_epoch_8.pth (torch, 17017 bytes, 6 tensors)

conv1.lin_l.weight f4 [32, 36]
0.052503582 0.11092218 0.06506472 -0.17564903 -0.09921272 0.039102703 0.0047440566 0.051713735
0.06216821 -0.10983223 0.080819234 -0.025882855 0.038512483 0.08304155 -0.09872589 -0.12606034
-0.008905366 -0.029015407 0.13378917 0.111080244 -0.028524995 -0.09553248 0.09418289 0.16044761
-0.06101483 -0.058746085 0.013612762 -0.13008587 0.1388037 0.016507223 0.12364896 0.10740204
0.14064364 0.16510655 0.10258507 0.09643611 -0.08655529 -0.07865815 -0.14579491 0.046373054
0.13795306 -0.13882677 0.1653081 0.028486177 0.13523646 -0.113023244 0.08966608 0.056817636
0.035717905 0.075247705 -0.041953407 -0.089264475 0.10053064 0.036755875 -0.16401091 0.14274548
-0.045644008 -0.11322691 -0.062133014 -0.159138 -0.13764225 0.038064316 0.012200579 -0.06368333
0.018457219 -0.115005314 -0.09326017 -0.089965485 0.13148035 -0.049773037 -0.118801795 -0.14089489
-0.153182 0.06792098 0.10639949 -0.013095319 -0.11706953 -0.1154721 0.033329427 -0.12076436
0.030668542 0.1554405 -0.011782825 0.0529965 0.11661522 0.16598387 -0.03871113 -0.038984165
0.14033042 -0.015473381 -0.099953935 0.06760359 0.0695471 -0.14589064 0.018447533 -0.04417436
0.14341511 -0.13173245 0.03279704 0.0772928 0.15613903 -0.11060864 0.038565814 -0.039620057
-0.10350047 -0.04833605 0.053876296 0.16296978 -0.087180756 0.024635628 -0.1304361 0.1424426
-0.059613943 -0.0063344985 -0.074299455 0.057128266 0.10063149 0.12815489 0.1309184 0.109727666
0.093290225 -0.03714186 -0.050920784 0.055700347 0.078085184 -0.15522733 0.09176849 0.057767347
0.034550533 -0.012072369 -0.020098642 0.12495063 0.018775776 0.023691237 -0.09967357 -0.16039667
-0.06066084 0.06316553 0.029496744 -0.09603511 -0.15922019 0.105382726 0.08017336 -0.04422538
-0.08779163 -0.171143 -0.0918223 0.0052328506 0.05803659 -0.040340494 0.06649351 -0.040367663
-0.057828303 -0.14464931 -0.01162827 0.06412506 -0.14647356 -0.065387055 -0.0073198276 -0.047726437
-0.07792886 -0.15983002 -0.13521409 0.06585176 0.054253146 -0.09255259 0.08798833 -0.066951856
0.15784307 0.11533113 -0.0879526 -0.019526482 -0.053114794 -0.034959003 -0.13522792 -0.14289984
-0.14171207 -0.13966857 0.056330476 0.08728626 0.06316684 -0.10730662 -0.0841376 0.00044709444
-0.15718791 0.115158066 -0.0037732273 0.119337365 -0.16661398 -0.092856094 -0.14046985 0.10054113
0.012315944 -0.03752689 0.15106277 -0.11776601 0.09695198 -0.0479182 -0.11874586 0.022071734
-0.08305214 0.043538824 0.06272012 0.08520283 0.105486766 -0.13402247 0.06536566 -0.09371042
-0.14871177 -0.03465891 -0.09688151 -0.1361849 -0.070336364 -0.1506794 -0.0050287247 -0.009909019
-0.031060204 -0.10749836 0.083770655 0.120084465 0.077924505 -0.025751928 -0.15270172 0.05761492
0.019847322 0.15894468 -0.13320008 0.055076778 -0.13616185 0.13479881 -0.03563243 0.15632984
0.09957509 -0.15398031 0.07759482 -0.028489962 -0.01216048 -0.15643987 -0.08928325 0.13506855
-0.05089055 -0.038503602 0.0062091947 0.06562352 0.054674387 0.10917579 0.0267898 -0.1568291
-0.044787586 -0.15642785 0.11542979 -0.11951511 -0.09206939 0.041930154 0.12395705 -0.10879829
00000000: ff0d 573d 2b2b e33d a740 853d 57dd 33be
00000010: 0a30 cbbd 282a 203d 0874 9b3b c8d1 533d
00000020: 18a4 7e3d b8ef e0bd 8e84 a53d 4808 d4bc
00000030: 44bf 1d3d b011 aa3d cd30 cabd f615 01be
00000040: d0e7 11bc b8b1 edbc 0700 093e 0a7e e33d
00000050: 40ad e9bc 88a6 c3bd f6e2 c03d 614c 243e
00000060: b0ea 79bd bc9f 70bd 1008 5f3c 3b35 05be
00000070: 8f22 0e3e 283a 873c aa3b fd3d 9af5 db3d
00000080: e304 103e b111 293e 1f18 d23d 4c80 c53d
00000090: e643 b1bd 8617 a1bd 434b 15be acf1 3d3d
000000a0: 9143 0d3e 9b28 0ebe 8746 293e d85b e93c
000000b0: 6d7b 0a3e bb78 e7bd daa2 b73d 9cb9 683d
000000c0: f04c 123d 781b 9a3d 56d7 2bbd 4bd0 b6bd
000000d0: 02e3 cd3d 548d 163d 7af2 27be df2b 123e
000000e0: 36f5 3abd 83e3 e7bd 307f 7ebd 12f5 22be
000000f0: 17f2 0cbe 54e9 1b3d f0e4 473c 686c 82bd
00000100: 9833 973c e887 ebbd 30ff bebd d33f b8bd
00000110: c9a2 063e d0de 4bbd 5b4e f3bd c046 10be
00000120: bedb 1cbe 281a 8b3d fae7 d93d c08d 56bc
00000130: 26c2 efbd a37c ecbd 7084 083d 4e53 f7bd
00000140: 983c fb3c cb2b 1f3e c00c 41bc dc12 593d
00000150: f6d3 ee3d adf7 293e 908f 1ebd dcad 1fbd
00000160: c7b2 0f3e 1084 7dbc a6b4 ccbd c073 8a3d
00000170: b66e 8e3d 5b64 15be 481f 973c 2cf0 34bd
00000180: 69db 123e dfe4 06be 3056 063d b04b 9e3d
00000190: e9e2 1f3e c886 e2bd 30f7 1d3d a448 22bd
000001a0: 0ef8 d3bd 06fc 45bd 64ad 5c3d 8de1 263e
000001b0: d38b b2bd a8d0 c93c 0a91 05be 79dc 113e
000001c0: c02d 74bd a091 cfbb 502a 98bd 54ff 693d
000001d0: e217 ce3d 093b 033e 790f 063e e6b8 e03d
000001e0: f20e bf3d 1022 18bd 5092 50bd 0c26 643d
000001f0: 20eb 9f3d eaf3 1ebe 1ef1 bb3d 749d 6c3d
00000200: dc84 0d3d 30cb 45bc e8a5 a4bc 1ee6 ff3d
00000210: a8cf 993c 2014 c23c a821 ccbd 063f 24be
00000220: 8077 78bd ee5c 813d 28a3 f13c 0eae c4bd
00000230: 9e0a 23be e6d2 d73d ee31 a43d ac25 35bd
00000240: 19cc b3bd 1c40 2fbe 540d bcbd 5578 ab3b
00000250: c7b7 6d3d 133c 25bd c02d 883d 9058 25bd
00000260: 5fdd 6cbd f31e 14be 8084 3ebc 0054 833d
00000270: 2afd 15be a6e9 85bd 2adb efbb cc7c 43bd
00000280: 2b99 9fbd 7baa 23be 9075 0abe 4add 863d
00000290: 8c38 5e3d 368c bdbd 3a33 b43d 0e1e 89bd
000002a0: 9da1 213e ba32 ec3d 7e20 b4bd 00f6 9fbc
000002b0: e68e 59bd 2c31 0fbd 3079 0abe 5654 12be
000002c0: f81c 11be 4705 0fbe c9ba 663d 24c3 b23d
000002d0: 9e5d 813d 93c3 dbbd 5650 acbd 0068 ea39
000002e0: def5 20be fed7 eb3d 4048 77bb 2667 f43d
000002f0: db9c 2abe 562b bebd 54d7 0fbe 82e8 cd3d
00000300: d0c8 493c ccb5 19bd 33b0 1a3e 4e2f f1bd
00000310: c28e c63d e045 44bd 0831 f3bd c8cf b43c
00000320: 3e17 aabd c455 323d 6873 803d d27e ae3d
00000330: 7209 d83d 303d 09be 6ede 853d 40eb bfbd
00000340: e647 18be 80f6 0dbd d069 c6bd 0e74 0bbe
00000350: 830c 90bd b34b 1abe 00c8 a4bb 7059 22bc
00000360: f871 febc 1a28 dcbd f38f ab3d d8ee f53d
00000370: e296 9f3d b5f5 d2bc d75d 1cbe 9ffd 6b3d
00000380: da96 a23c 65c2 223e 9a65 08be 3098 613d
00000390: 036e 0bbe b308 0a3e 50f3 11bd ee14 203e
000003a0: 06ee cb3d 04ad 1dbe 08ea 9e3d c863 e9bc
000003b0: c03c 47bc c631 20be 23da b6bd 694f 0a3e
000003c0: 9c72 50bd f4b5 1dbd 8076 cb3b a065 863d
000003d0: 40f2 5f3d 8e97 df3d 4876 db3c cf97 20be
000003e0: 3073 37bd 9f2e 20be 7466 ec3d 57c4 f4bd
000003f0: e08e bcbd f4be 2b3d 32dd fd3d a3d1 debd

conv1.lin_l.bias f4 [32]
0.12885402 -0.16509509 0.04560596 -0.120940275 -0.12925224 -0.07493619 -0.026690887 -0.07444012
-0.0317688 0.09068414 0.11871196 0.055724457 0.07694466 -0.070943505 -0.112758815 0.0030703188
-0.08684784 -0.019643072 -0.16506839 -0.056034826 -0.0933299 -0.10671575 0.039615765 0.12641229
-0.16372743 -0.1463509 -0.13509256 0.092678085 -0.07713042 -0.0648762 0.13452844 -0.15872619
00000000: 4ff2 033e b00e 29be 51cd 3a3d 89af f7bd
00000010: b35a 04be 2578 99bd d9a6 dabc 1074 98bd
00000020: 0020 02bd 9bb8 b93d 421f f33d 543f 643d
00000030: 2995 9d3d d44a 91bd 18ee e6bd 6737 493b
00000040: 48dd b1bd 82ea a0bc b007 29be c684 65bd
00000050: bf23 bfbd ca8d dabd 2444 223d 3972 013e
00000060: 2aa8 27be 03dd 15be b455 0abe 02ce bd3d
00000070: 8ef6 9dbd d0dd 84bd d3c1 093e 1e89 22be

conv1.lin_r.weight f4 [32, 36]
-0.037733212 0.028768465 -0.124221824 0.07825905 0.14001296 -0.072340176 -0.1387361 -0.01181227
0.084677264 -0.022644028 0.008982658 0.028871894 0.13551076 0.0018773526 -0.10708829 0.023817286
-0.038982645 0.07435624 0.16548423 -0.028629899 0.028774753 0.1354091 -0.1176973 -0.14741778
0.08311163 0.073113516 -0.08746996 0.05573584 0.114699766 -0.10761142 -0.013527319 -0.02456224
-0.07806655 -0.07483512 -0.017212927 -0.07120101 0.05136241 -0.00015483797 0.0038544685 0.11487456
-0.052496716 -0.0148059875 -0.11828095 -0.09036158 -0.07444996 0.038587317 0.10700084 -0.060602188
-0.026639044 0.12523209 -0.09153901 -0.060093224 -0.02963978 -0.101544425 -0.035729542 -0.004547775
-0.043269098 0.11726473 0.0013267398 -0.10318687 0.026489004 -0.11243431 -0.10373443 -0.08356343
0.0051754117 -0.10907827 0.101468936 0.041744336 -0.11836439 -0.08613577 0.12879355 -0.088492975
0.05311694 -0.076520406 -0.06818407 0.11029352 -0.1678073 0.07253329 0.07685084 -0.06663222
-0.1752658 -0.14818768 0.014868319 0.06828183 -0.030981824 -0.002092898 0.051190063 -0.027191058
-0.12972407 0.07157518 0.094901726 -0.14152122 -0.14295438 0.013023436 -0.13099018 0.16461627
0.12899806 0.13305558 -0.056703553 0.015559137 0.10328932 -0.10609506 0.08948149 0.061444297
0.0792879 0.112440035 -0.061192703 0.08994467 0.005595962 -0.078325994 0.0058908854 0.13029622
-0.028089745 0.010062739 0.004778026 -0.1259734 -0.116469316 -0.05873911 0.02089113 0.03606701
-0.086655304 0.13421436 -0.16734484 -0.06457562 0.12186326 0.121390745 0.10764609 0.07215406
0.09388514 -0.06882137 0.0181479 0.11277278 0.11742045 -0.07334213 -0.02748762 -0.14359204
0.04235421 -0.120090626 0.014775991 0.15637906 -0.1567544 -0.15535174 0.10431758 0.10166777
-0.06883123 -0.031089643 0.0020810335 -0.057976108 -0.07488543 0.108266376 -0.12312926 -0.042160556
-0.19392467 -0.007282138 -0.14872402 -0.06045793 -0.032476053 0.09437545 0.042635992 -0.12378975
-0.15535103 0.012558356 -0.022740707 -0.06871923 0.068298474 -0.14281812 -0.034036636 0.13762634
-0.005623415 0.08022748 0.14837243 0.036452666 0.098786905 -0.010834351 0.08242744 -0.016918197
0.06950492 0.1381808 0.122038156 -0.04262404 -0.06998879 -0.043436814 -0.13328193 0.16983792
-0.010496159 0.17679241 0.18816173 0.024297465 0.16068825 -0.0056356937 -0.13565099 -0.1179181
-0.11793514 -0.08702668 -0.009148453 -0.08653523 0.0693938 0.06359643 0.15920152 0.01890771
0.026368365 -0.016227856 0.0584424 -0.15093601 -0.04074554 0.034751475 0.10665901 0.07904202
0.13223965 -0.044064127 0.08977963 0.036167964 -0.010226265 -0.15821823 -0.028236724 0.07001577
-0.037730675 0.15425332 0.07360527 -0.109791934 0.18081853 -0.042571753 -0.12855135 0.13351274
0.090781674 -0.010586381 -0.16219288 -0.08458664 0.0045553297 -0.07608603 0.06159772 -0.08501893
0.08960681 -0.035426274 -0.049273536 0.10049732 0.12769766 0.012098834 -0.060618922 0.090170845
-0.075199924 0.12636684 -0.14122717 -0.11490848 -0.1605526 -0.13117498 0.08170849 -0.06628077
0.09063412 0.14262699 0.023413917 0.10885431 0.032375142 0.0586188 0.112004146 -0.04863231
00000000: 248e 1abd d8ab eb3c 0368 febd 4846 a03d
00000010: 8f5f 0f3e 1627 94bd d610 0ebe 4088 41bc
00000020: 466b ad3d f87f b9bc 002c 133c c084 ec3c
00000030: 55c3 0a3e 8011 f63a 1b51 dbbd 781c c33c
00000040: 44ac 1fbd 1648 983d b374 293e 4089 eabc
00000050: 08b9 eb3c afa8 0a3e 480b f1bd b0f4 16be
00000060: 6e36 aa3d 8abc 953d 7323 b3bd 444b 643d
00000070: b6e7 ea3d 6063 dcbd b0a1 5dbc c036 c9bc
00000080: 5be1 9fbd 2843 99bd 2002 8dbc d6d1 91bd
00000090: 6461 523d 005c 22b9 409b 7c3b 5a43 eb3d
000000a0: cc06 57bd d094 72bc 483d f2bd 7e0f b9bd
000000b0: 3879 98bd bc0d 1e3d 4223 db3d 003a 78bd
000000c0: 203a dabc d73c 003e ce78 bbbd 5024 76bd
000000d0: 20cf f2bc 86f6 cfbd 2459 12bd 8005 95bb
000000e0: f03a 31bd 7e28 f03d 00e6 ad3a a353 d3bd
000000f0: 78ff d83c f643 e6bd b872 d4bd 4e23 abbd
00000100: 8096 a93b 6e64 dfbd f2ce cf3d 1cfc 2a3d
00000110: 0869 f2bd f367 b0bd 75e2 033e ce3b b5bd
00000120: 2691 593d bbb6 9cbd 17a4 8bbd 92e1 e13d
00000130: add5 2bbe 558c 943d f963 9d3d 7976 88bd
00000140: e178 33be 83be 17be 409a 733c 58d7 8b3d
00000150: 98cd fdbc 0029 09bb acac 513d c8bf debc
00000160: 63d6 04be 0296 923d d65b c23d f0ea 10be
00000170: a262 12be 4060 553c 4a22 06be 2b91 283e
00000180: 1118 043e b93f 083e fc41 68bd c0eb 7e3c
00000190: 5a89 d33d 5e48 d9bd 1242 b73d 04ad 7b3d
000001a0: b261 a23d f646 e63d 33a5 7abd e934 b83d
000001b0: 555e b73b 6169 a0bd 5408 c13b 5f6c 053e
000001c0: 771c e6bc 30de 243c fd90 9c3b 2cff 00be
000001d0: 7787 eebd 6c98 70bd e023 ab3c 00bb 133d
000001e0: 5678 b1bd 7d6f 093e 725c 2bbe 3940 84bd
000001f0: 7293 f93d b69b f83d 8e75 dc3d 82c5 933d
00000200: da46 c03d 38f2 8cbd e8aa 943c 6af5 e63d
00000210: 227a f03d 6634 96bd b82d e1bc cb09 13be
00000220: 9c7b 2d3d 13f2 f5bd 0017 723c d521 203e
00000230: 3a84 20be 8714 1fbe 75a4 d53d 3137 d03d
00000240: 63f7 8cbd b5af febc f361 083b 5b78 6dbd
00000250: 885d 99bd c3ba dd3d 322b fcbd 8cb0 2cbd
00000260: 3094 46be 009f eebb 1c4b 18be bca2 77bd
00000270: 9c05 05bd ea47 c13d 14a3 2e3d 7b85 fdbd
00000280: 5714 1fbe 90c1 4d3c b84a babc abbc 8cbd
00000290: 12e0 8b3d ea3e 12be 006a 0bbd ebed 0c3e
000002a0: a044 b8bb 4e4e a43d f1ee 173e 644f 153d
000002b0: ca50 ca3d 9082 31bc b8cf a83d 0898 8abc
000002c0: 9858 8e3d 457f 0d3e 24ef f93d 8c96 2ebd
000002d0: 4856 8fbd cdea 31bd 0f7b 08be fee9 2d3e
000002e0: 15f8 2bbc 1209 353e 78ad 403e 7a0b c73c
000002f0: 768b 243e a0ab b8bb 18e8 0abe 0b7f f1bd
00000300: fb87 f1bd 0b3b b2bd 65e3 15bc 6239 b1bd
00000310: 561e 8e3d d83e 823d b905 233e 58e4 9a3c
00000320: 7802 d83c 48f0 84bc 4c61 6f3d f88e 1abe
00000330: cce4 26bd 9057 0e3d 0a70 da3d c8e0 a13d
00000340: d569 073e 967c 34bd 62de b73d dc24 143d
00000350: 108c 27bc f603 22be b450 e7bc 6e64 8f3d
00000360: 7b8b 1abd 95f4 1d3e 5cbe 963d 98da e0bd
00000370: 7e28 393e b85f 2ebd f7a2 03be 90b7 083e
00000380: beeb b93d 8072 2dbc e415 26be c33b adbd
00000390: e044 953b fed2 9bbd e44d 7c3d 681e aebd
000003a0: c683 b73d 241b 11bd 0cd3 49bd 8ad1 cd3d
000003b0: 2dc3 023e 303a 463c 8c4b 78bd 7eab b83d
000003c0: 6b02 9abd 4f66 013e db9d 10be 2355 ebbd
000003d0: e767 24be bc52 06be c856 a73d 36be 87bd
000003e0: 629e b93d cf0c 123e 8bce bf3c 02ef de3d
000003f0: cc9b 043d 441a 703d 6e62 e53d ac32 47bd

conv2.lin_l.weight f4 [16, 32]
0.04027529 -0.17376804 -0.10472323 0.050510645 0.13340919 0.170017 0.11624201 0.0042907447
0.075488135 -0.073571995 -0.018704534 0.14637692 -0.026921272 0.09413829 0.07936756 0.024984017
0.1377653 0.07133431 -0.09719134 -0.10257586 -0.052710116 0.14532787 -0.10817804 -0.15355818
-0.034036577 -0.034802377 0.1721858 0.15607587 0.13142835 0.007390514 -0.07896565 0.15061599
0.15761788 0.030652374 -0.15927605 -0.06715378 -0.0050215875 0.108029366 0.17659912 -0.10481921
0.16586603 -0.093397625 0.16550656 -0.120523125 -0.067517206 0.1680402 0.12080443 -0.0030809194
0.10496859 0.18782733 -0.13494155 0.17459922 0.1588686 0.077367626 0.039742917 -0.025006235
-0.008772954 -0.17202745 0.15226299 -0.1201263 0.058313936 -0.05316264 0.07599263 -0.1498188
-0.050015435 0.15860869 -0.07339335 0.06462343 -0.14588214 0.14023274 0.10618889 0.012374714
-0.13849187 0.046485122 -0.02420652 -0.05403146 -0.16376908 0.0022202057 0.03810038 0.013020188
-0.05100055 -0.17372653 0.064846255 0.10084261 0.08584785 -0.19320835 -0.11097715 0.10890825
0.16214989 0.069084495 0.13060334 -0.013630286 -0.16449656 0.040963307 0.066204734 0.1456827
0.092126265 -0.04725437 0.0025966652 -0.020495076 0.017287733 0.18429641 0.05836209 -0.12870201
-0.15907902 0.11568405 0.16386963 0.050353855 -0.07176963 0.17668515 -0.069612116 0.084098116
-0.0588947 0.15823 0.17869414 -0.15495719 -0.0075454344 0.04163267 -0.092862055 0.12727131
-0.1473707 -0.016494527 -0.14157994 -0.02682711 0.16631286 -0.114963874 -0.0055078557 0.027922055
-0.066575095 0.101093754 0.067540266 0.0471523 0.073207125 0.096923836 -0.12171999 0.1690617
-0.07622957 -0.037031375 0.082272336 -0.04425624 0.06336357 0.056941506 0.09014374 -0.072638996
-0.020209491 -0.18646431 0.11843671 0.034711823 0.029799592 -0.14798503 -0.051696025 -0.13722119
0.020118982 -0.03831713 -0.101803936 -0.07209487 0.011212468 -0.06508618 -0.09573268 0.07612836
-0.0474896 -0.003646329 0.07721944 -0.0985961 -0.15228437 0.05365224 -0.09391181 -0.15412034
-0.13409919 0.03577405 0.03647232 -0.07602387 0.014144525 0.017935108 -0.011037831 0.14197914
-0.089641795 0.05912892 -0.056188215 -0.032075018 -0.16723427 -0.20446321 0.12724641 -0.07167207
-0.0097179115 0.08539258 -0.10788044 0.031207137 -0.09371752 0.07864131 0.0007437363 -0.028046673
-0.024405852 0.09357311 -0.18710755 0.03776292 -0.0811983 -0.0557869 0.12670335 -0.094015375
0.013197973 0.13951266 -0.077501565 0.15744658 0.14851345 0.11334452 0.08244574 -0.022332758
-0.00661096 -0.18248178 -0.17355557 -0.1372621 0.102105476 -0.07293433 0.10877865 -0.035144612
0.007239729 -0.09236853 0.13980533 -0.13630274 0.1433811 0.17673875 -0.079873405 -0.06748322
0.007881418 0.16301449 -0.051581185 -0.028075341 -0.010599131 -0.08508414 0.037060075 -0.05486729
-0.02815926 0.08432672 0.08531602 -0.119227156 -0.13421594 -0.07988955 0.015549943 -0.121333376
-0.089110024 -0.0022049707 0.14297193 -0.07720451 -0.12939192 0.045914557 -0.1501207 -0.032027543
0.04067886 0.16111879 0.14735301 0.037453562 -0.14026576 -0.06832325 -0.03258091 0.12762997
00000000: b4f7 243d 40f0 31be 2279 d6bd 40e4 4e3d
00000010: 6b9c 083e f018 2e3e 4a10 ee3d 6099 8c3b
00000020: 8699 9a3d eaac 96bd 403a 99bc d5e3 153e
00000030: 008a dcbc 93cb c03d 768b a23d 48ab cc3c
00000040: 5912 0d3e b917 923d 410c c7bd 4b13 d2bd
00000050: 90e6 57bd d4d0 143e 738c ddbd 5b3e 1dbe
00000060: f069 0bbd f08c 0ebd 7951 303e 5ad2 1f3e
00000070: 2795 063e 202c f23b beb8 a1bd 143b 1a3e
00000080: 9566 213e b01a fb3c 4319 23be ec87 89bd
00000090: 218c a4bb 803e dd3d 66d6 343e 74ab d6bd
000000a0: c9d8 293e 4147 bfbd 8d7a 293e d4d4 f6bd
000000b0: 7646 8abd bb12 2c3e 5068 f73d 40e9 49bb
000000c0: c6f9 d63d cf55 403e 1e2e 0abe 23ca 323e
000000d0: 73ae 223e eb72 9e3d 78c9 223d e0d9 ccbc
000000e0: 70bc 0fbc f727 30be d4ea 1b3e c704 f6bd
000000f0: 98da 6e3d 12c1 59bd 06a2 9b3d 196a 19be
00000100: fcdc 4cbd 516a 223e 414f 96bd 4a59 843d
00000110: 2162 15be 2c99 0f3e 9079 d93d 50bf 4a3c
00000120: d0d0 0dbe 2f67 3e3d c04c c6bc 1850 5dbd
00000130: 15b3 27be df80 113b 250f 1c3d a052 553c
00000140: f4e5 50bd 5ee5 31be 1dce 843d 9286 ce3d
00000150: ffd0 af3d 69d8 45be fd47 e3bd 4a0b df3d
00000160: 9f0a 263e 2c7c 8d3d e2bc 053e 9051 5fbc
00000170: c971 28be 24c9 273d 5996 873d d92d 153e
00000180: b2ac bc3d cc8d 41bd d02c 2a3b 4ae5 a7bc
00000190: 019f 8d3c 33b8 3c3e 160d 6f3d 76ca 03be
000001a0: 9ce5 22be c2eb ec3d 71cd 273e d83f 4e3d
000001b0: f5fb 92bd f4ec 343e cc90 8ebd a23b ac3d
000001c0: 923b 71bd 0c07 223e 99fb 363e 19ad 1ebe
000001d0: b13f f7bb 0587 2a3d 762e bebd 6953 023e
000001e0: 58e8 16be 881f 87bc 55fa 10be 87c4 dbbc
000001f0: eb4d 2a3e 2e72 ebbd 3e7b b4bb cbbc e43c
00000200: 8658 88bd 3e0a cf3d 8d52 8a3d c522 413d
00000210: 9eed 953d 0180 c63d 5548 f9bd 831e 2d3e
00000220: 401e 9cbd 36ae 17bd 667e a83d 0846 35bd
00000230: c2c4 813d 7f3b 693d 489d b83d c1c3 94bd
00000240: 608e a5bc 80f0 3ebe f28e f23d fc2d 0e3d
00000250: 461e f43c 6389 17be 36bf 53bd b683 0cbe
00000260: 90d0 a43c 6cf2 1cbd 957e d0bd 7aa6 93bd
00000270: 80b4 373c e74b 85bd 7f0f c4bd 30e9 9b3d
00000280: 7484 42bd 40f7 6ebb 3a25 9e3d c1ec c9bd
00000290: 6ff0 1bbe 74c2 5b3d d654 c0bd b9d1 1dbe
000002a0: 4c51 09be cf87 123d 0064 153d 67b2 9bbd
000002b0: 70be 673c a6ec 923c 05d8 34bc fb62 113e
000002c0: 1e96 b7bd 2b31 723d 9d25 66bd 1861 03bd
000002d0: 763f 2bbe ce5e 51be e24c 023e cec8 92bd
000002e0: e037 1fbc 4ee2 ae3d 6cf0 dcbd 1ca6 ff3c
000002f0: f9ee bfbd b20e a13d 4cf7 423a 23c2 e5bc
00000300: c8ee c7bc 42a3 bf3d 1f99 3fbe 4bad 1a3d
00000310: 4b4b a6bd ce80 64bd 86be 013e 228b c0bd
00000320: 503c 583c 68dc 0e3e 24b9 9ebd ad39 213e
00000330: e913 183e 2c21 e83d 50d9 a83d 30f3 b6bc
00000340: c0a0 d8bb 81dc 3abe 8db8 31be 708e 0cbe
00000350: ad1c d13d 985e 95bd 57c7 de3d ccf3 0fbd
00000360: 403b ed3b b62b bdbd 2129 0f3e f292 0bbe
00000370: 7fd2 123e 01fb 343e ab94 a3bd a434 8abd
00000380: 1021 013c 45ed 263e cb46 53bd 42fe e5bc
00000390: faa7 2dbc 9840 aebd 4ecc 173d 86bc 60bd
000003a0: 40ae e6bc 7db3 ac3d 2aba ae3d 5e2d f4bd
000003b0: e76f 09be 229d a3bd 30c5 7e3c a27d f8bd
000003c0: 517f b6bd 4581 10bb 3c67 123e 661d 9ebd
000003d0: 517f 04be e710 3c3d 3eb9 19be 502f 03bd
000003e0: e09e 263d 53fc 243e b5e3 163e e868 193d
000003f0: d4a1 0fbe 0fed 8bbd 8f73 05bd 6eb1 023e

conv2.lin_l.bias f4 [16]
-0.021179304 -0.033810616 0.18702917 -0.105200805 -0.16023985 0.019445721 0.13668069 -0.035255395
-0.09116546 -0.053006247 0.11715468 0.107198395 -0.054394074 -0.17613252 -0.13723567 -0.074971594
00000000: 3880 adbc 007d 0abd 9384 3f3e 8573 d7bd
00000010: ea15 24be a24c 9f3c 06f6 0b3e f667 10bd
00000020: f5b4 babd 141d 59bd cbee ef3d d58a db3d
00000030: 52cc 5ebd 155c 34be 8287 0cbe b58a 99bd

conv2.lin_r.weight f4 [16, 32]
0.024723504 0.13228036 0.12243902 0.019706225 0.071604975 -0.17965819 0.020482965 0.013919592
0.10019411 -0.14066146 -0.031317875 0.069281876 -0.059241246 -0.11743336 0.12095192 -0.12567121
-0.117087424 0.015184456 0.07982622 0.15555222 0.051717624 0.10075377 0.08152043 0.13931398
-0.022717789 -0.1649592 -0.107852325 0.12592474 0.07509564 0.12199734 0.06041017 0.014996096
0.05214361 -0.10491267 0.045442525 0.04752921 -0.11439386 -0.10565395 -0.056182135 0.027476773
0.1733614 -0.104256056 -0.08603318 -0.17507769 -0.07819075 -0.119800545 -0.09990327 -0.093161404
0.026699528 -0.0007607333 -0.08592817 -0.08945285 0.11538885 0.023180135 -0.08524857 0.032091975
-0.13069841 -0.06794866 0.08052625 0.03253713 -0.0043463707 0.15196876 -0.0056295297 0.14728498
0.123524114 0.06492403 0.10705333 0.18725853 -0.17633823 -0.10394997 0.032273635 -0.14025861
-0.0169148 0.06400241 -0.09060999 -0.15961646 0.0950933 -0.022024654 0.13766086 0.077570304
-0.1548238 -0.098337814 -0.16236918 -0.12633614 0.05278555 -0.08159999 -0.075581424 0.019583464
-0.08069627 -0.07707531 0.16443267 0.035109174 -0.1259844 -0.12442481 0.09939646 -0.033888403
-0.07816228 0.04031314 0.00068669213 0.13285972 -0.010946036 0.18560281 0.0555354 -0.10623027
-0.13230997 0.035148483 0.0046150982 -0.15069239 0.02470546 0.13810007 0.15129933 0.01765365
-0.098963514 -0.053171113 0.013326436 0.05603893 0.0260476 0.10611175 0.012806058 -0.15032487
0.091328636 0.083211765 0.11986628 0.18663701 -0.13871562 -0.024531439 -0.030991765 -0.0783434
0.1026922 0.11047526 0.05123569 0.0333204 -0.015288028 -0.018962992 0.007291741 -0.10969931
0.17203946 0.04536434 0.013199508 0.0070773214 -0.041111626 0.04539648 -0.03258008 0.058011748
0.019669697 -0.049914476 -0.031854644 0.17280535 0.06879966 -0.11450785 0.10292719 0.1622143
0.117831245 0.058336154 -0.10215144 0.12814936 -0.041404933 -0.01528731 0.088876866 0.1395831
-0.11468564 -0.046864554 -0.10226756 -0.004566047 0.105886966 -0.19182108 -0.013547472 0.048613816
0.05902864 -0.116312794 -0.042807788 -0.13203911 -0.17320745 -0.14176135 -0.13306369 0.11903128
-0.090945795 -0.16110538 0.044080883 0.12819354 -0.1278136 -0.06306108 0.04574747 -0.11682925
-0.093744576 -0.15240037 -0.013971515 -0.104929544 0.1021056 -0.120608725 0.04723438 0.10070027
-0.113510765 0.0117805 -0.092641234 -0.19782577 -0.08679921 -0.10546993 -0.08539143 0.0933678
-0.13857235 -0.102953255 0.1230769 -0.15306658 -0.1946647 0.0007908053 -0.10281145 -0.018095938
0.02203618 -0.008408662 -0.027504444 0.050962895 -0.14869386 -0.09916484 -0.03257279 -0.080235355
0.107079014 0.068225786 -0.099314585 0.117081404 0.075418875 -0.039666757 -0.1699397 0.09702707
0.0070578814 0.06786643 0.002516518 -0.046875913 0.14195894 -0.10469842 0.038360875 -0.036012307
-0.011755466 -0.032245196 0.0031495243 -0.044272125 0.084822424 0.14257585 0.086095236 -0.035506733
-0.03729631 0.07075105 0.07629828 -0.14110368 -0.077216044 -0.04582549 0.07886977 0.05721359
0.09886937 0.10515557 -0.09350988 -0.06701154 0.019232154 -0.017244741 -0.13368122 0.09160878
00000000: f288 ca3c 8174 073e 4fc1 fa3d f36e a13c
00000010: a1a5 923d 51f8 37be e4cb a73c 000f 643c
00000020: 9232 cd3d 8f09 10be 2c47 00bd a8e3 8d3d
00000030: f3a6 72bd e780 f0bd a4b5 f73d f4af 00be
00000040: 88cb efbd 39c8 783c ee7b a33d 1549 1f3e
00000050: dcd5 533d fe57 ce3d 2ff4 a63d 53a8 0e3e
00000060: a81a babc 11eb 28be aee1 dcbd 6af2 003e
00000070: becb 993d bed9 f93d a870 773d 2fb2 753c
00000080: 8a94 553d 74dc d6bd f121 3a3d fdad 423d
00000090: 5447 eabd 1961 d8bd 3d1f 66bd f816 e13c
000000a0: a785 313e 3384 d5bd 2a32 b0bd 9147 33be
000000b0: 7922 a0bd fd59 f5bd 169a ccbd 68cb bebd
000000c0: f8b8 da3c f36b 47ba 1cfb afbd 0e33 b7bd
000000d0: fd50 ec3d 44e4 bd3c cd96 aebd e072 033d
000000e0: ced5 05be ab28 8bbd f2ea a43d a745 053d
000000f0: 006c 8ebb b39d 1b3e eb77 b8bb e0d1 163e
00000100: 36fa fc3d e4f6 843d c73e db3d b3c0 3f3e
00000110: 0292 34be b9e3 d4bd 5c31 043d f49f 0fbe
00000120: e890 8abc b213 833d bb91 b9bd 7f72 23be
00000130: 47c0 c23d 0c6d b4bc f8f6 0c3e 2edd 9e3d
00000140: 218a 1ebe 5665 c9bd 1b44 26be 435e 01be
00000150: a935 583d e51d a7bd 6fca 9abd 806d a03c
00000160: 1644 a5bd a9d9 9dbd 0a61 283e a3ce 0f3d
00000170: 0e02 01be 6fd2 febd 5f90 cb3d 91ce 0abd
00000180: 8c13 a0bd 641f 253d 2103 343a 610c 083e
00000190: 0157 33bc aa0e 3e3e 1679 633d 418f d9bd
000001a0: 447c 07be dbf7 0f3d 403a 973b 1b4f 1abe
000001b0: 1b63 ca3c 1b6a 0d3e 36ee 1a3e 639e 903c
000001c0: 62ad cabd f4c9 59bd 2057 5a3c 1489 653d
000001d0: c761 d53c 1e51 d93d 80d0 513c c3ee 19be
000001e0: 820a bb3d ee6a aa3d 747c f53d c61d 3f3e
000001f0: 780b 0ebe 28f6 c8bc 71e2 fdbc 8172 a0bd
00000200: 4a50 d23d da40 e23d 84dc 513d f97a 083d
00000210: a37a 7abc 4758 9bbc 8fef ee3b 08aa e0bd
00000220: 1d2b 303e f5cf 393d c042 583c e0e8 e73b
00000230: aa64 28bd a9f1 393d b172 05bd ba9d 6d3d
00000240: 5822 a13c 1f73 4cbd 047a 02bd e3f3 303e
00000250: d6e6 8c3d 1783 eabd 7ecb d23d 811b 263e
00000260: 8251 f13d e4f1 6e3d c634 d1bd 9639 033e
00000270: 3898 29bd a077 7abc 1305 b63d dfee 0e3e
00000280: 4ee0 eabd 0cf5 3fbd a871 d1bd c79e 95bb
00000290: 44db d83d bf6c 44be 37f6 5dbc 481f 473d
000002a0: 04c8 713d 6735 eebd 3857 2fbd 4335 07be
000002b0: 4b5d 31be e329 11be d941 08be acc6 f33d
000002c0: ca41 babd cff8 24be 288e 343d 2b45 033e
000002d0: 91e1 02be 2b26 81bd b361 3b3d 2c44 efbd
000002e0: 28fd bfbd d80e 1cbe c8e8 64bc 4de5 d6bd
000002f0: be1c d13d b501 f7bd d678 413d f13b ce3d
00000300: 5578 e8bd 0003 413c b0ba bdbd d792 4abe
00000310: c9c3 b1bd 9e00 d8bd b4e1 aebd 9e37 bf3d
00000320: e9e5 0dbe 28d9 d2bd be0f fc3d 7cbd 1cbe
00000330: 2f56 47be 0c4e 4f3a cf8e d2bd ef3d 94bc
00000340: 3885 b43c 7cc4 09bc 0051 e1bc 78be 503d
00000350: 3443 18be f016 cbbd 0c6b 05bd 6f52 a4bd
00000360: 3e4c db3d f6b9 8b3d 7265 cbbd 60c8 ef3d
00000370: 3675 9a3d 9c79 22bd ac04 2ebe 21b6 c63d
00000380: cd45 e73b 8efd 8a3d 2bec 243b f500 40bd
00000390: af5d 113e 206c d6bd 4b20 1d3d a481 13bd
000003a0: 009a 40bc 8a13 04bd 4068 4e3b b056 35bd
000003b0: 61b7 ad3d 67ff 113e b352 b03d 826f 11bd
000003c0: 04c4 18bd ede5 903d 4642 9c3d 7c7d 10be
000003d0: 7223 9ebd 82b3 3bbd 7986 a13d cc58 6a3d
000003e0: 067c ca3d ce5b d73d 1c82 bfbd 593d 89bd
000003f0: c08c 9d3c d844 8dbc bbe3 08be 629d bb3d
