Backend/AI Model/GNN/gnn_context_engine_pilot.pth (torch, 16993 bytes, 6 tensors)

conv1.lin_l.weight f4 [32, 36]
0	0xbc330bff	-0.010928153
1	0x3e0528d2	0.13003853
2	0x3c742a4c	0.0149026625
3	0x3cde7a69	0.02715798
4	0x3e0d0040	0.13769627
5	0x3e0c410b	0.13696687
6	0xbd1c8f38	-0.03822252
7	0x3d34ced2	0.04414255
8	0x3b7eecdd	0.0038898506
9	0x3e01f27d	0.12690158
10	0xbdd62cae	-0.10457741
11	0x3c676910	0.01412417
12	0x3dd633da	0.10459109
13	0xbd61a20c	-0.05508618
14	0xbae1896f	-0.0017207096
15	0x3e24e93e	0.161046
16	0xbdf4d6b3	-0.11955013
17	0xbd57a6bc	-0.052649245
18	0x3c8d79a0	0.01726991
19	0x3dd83106	0.105562255
20	0xbd876deb	-0.06612762
21	0xbe11cbd0	-0.14237905
22	0xbd3b4606	-0.045721076
23	0xbe22d4fe	-0.15901563
24	0xbd718d96	-0.058972917
25	0xbe16117a	-0.14655104
26	0xbdbaa57b	-0.09113594
27	0xbd3fc73c	-0.046820864
28	0xbd0646bc	-0.0327823
29	0x3e0936e9	0.13399853
30	0xbe0c49ea	-0.13700071
31	0xbb31c540	-0.0027125627
32	0x3df5e1ea	0.1200598
33	0xbdb9ea3b	-0.09077879
34	0x3c2e5c45	0.010642116
35	0xbe1c6a88	-0.15275013
36	0x3df0acba	0.11751695
37	0x3d685d44	0.05672957
38	0x3d6d3e00	0.057920456
39	0xbe2579f6	-0.16159806
40	0xbdd44c0e	-0.10366069
41	0xbd62537c	-0.0552554
42	0xbe0d07ba	-0.13772479
43	0x3e07ea0d	0.13272877
44	0xbc4c8d70	-0.012484893
45	0x3dcf98d2	0.1013657
46	0x3dafe2c2	0.085881725
47	0x3da1500a	0.07876594
48	0x3debad3a	0.1150765
49	0xbd55ade0	-0.052167773
50	0x3e171ad9	0.14756335
51	0xbdacb30e	-0.084325895
52	0xbe1e3b48	-0.15452302
53	0xbd5ee13c	-0.05441402
54	0xbdcc5276	-0.09976666
55	0xbdee177e	-0.116255745
56	0xbbaa2960	-0.0051929206
57	0x3c163210	0.009167209
58	0xbe144cd6	-0.14482436
59	0xbd95251e	-0.0728247
60	0x3da70776	0.0815572
61	0x3e0d0647	0.13771926
62	0xbd96c2d6	-0.07361381
63	0x3ca59008	0.020210281
64	0xbbeabfe0	-0.0071639866
65	0x3d5b2234	0.053499416
66	0x3df9f13a	0.122042134
67	0xbd0b5e80	-0.03402567
68	0xbd4eb6ac	-0.05046718
69	0x3e132e8d	0.14373226
70	0x3b971060	0.0046101063
71	0x3da7b9fe	0.08189772
72	0x3e03dd0f	0.12877296
73	0xbcf86798	-0.030322835
74	0xbc8b3983	-0.016995197
75	0xbdf0b50a	-0.117532805
76	0x3d92ff8e	0.071776494
77	0xbc0cc763	-0.008592459
78	0x3cea6ebd	0.028617257
79	0x3dcd619a	0.10028382
80	0xbdd3177e	-0.10307215
81	0xbd698c3c	-0.057018504
82	0x3df30e1a	0.11867924
83	0x3dd0c48a	0.10193737
84	0x3a944680	0.0011312515
85	0xbcfdf800	-0.031002045
86	0xbe004ee1	-0.1253009
87	0xbd3ba3fa	-0.045810677
88	0xbc941a28	-0.018078879
89	0x3de24d42	0.11049892
90	0x3d94c0a6	0.07263307
91	0xbd08662c	-0.033300564
92	0x3e20ce01	0.15703584
93	0xbe1c08e4	-0.15237767
94	0xbdd81748	-0.105513155
95	0xbd0978d4	-0.033562496
96	0x3c554a50	0.013018206
97	0x3d5b3d34	0.053525165
98	0x3c7a0d40	0.015261948
99	0x3e1a1719	0.15047874
100	0xbcf616e0	-0.030040205
101	0x3dcb7a22	0.09935404
102	0x3dd9cb3a	0.106344655
103	0x3d92ee68	0.07174379
104	0xbd5cac2c	-0.053875133
105	0xbdaf3d6e	-0.08556639
106	0xbd073361	-0.033007983
107	0xbde02590	-0.109446645
108	0xbce3af40	-0.027793527
109	0xbe0041ac	-0.12525052
110	0x3dde9af2	0.10869397
111	0x3d6d417c	0.05792378
112	0xbd81ad2e	-0.063318595
113	0xbcd4a958	-0.025959656
114	0xbd79b196	-0.060960375
115	0xbd82e030	-0.063904166
116	0x3e2813d1	0.1641381
117	0xbd1f9fd4	-0.038970783
118	0x3e096df5	0.13420852
119	0x3e2620f1	0.16223504
120	0xbe28c284	-0.16480452
121	0x3d3b70bc	0.04576181
122	0xbe237198	-0.15961301
123	0xbd4b9b7c	-0.04970883
124	0x3e2460e1	0.16052581
125	0xbd7484e6	-0.059697054
126	0xbe02ee8c	-0.12786311
127	0x3d37f470	0.04491085
128	0x3c1d8630	0.009614512
129	0x3d309350	0.04310924
130	0xbc530430	-0.012879416
131	0x3d95a500	0.07306862
132	0x3cf7cbd8	0.030248567
133	0xbd2ac850	-0.04169494
134	0x3df79622	0.120891824
135	0x3d6173b4	0.055041984
136	0x3b82b960	0.0039893836
137	0xbda328d0	-0.07966769
138	0x3e148df9	0.14507283
139	0x3dddd272	0.10831155
140	0xbdcf4f63	-0.10122564
141	0x3cd9d208	0.026589409
142	0x3e24a8ef	0.16080068
143	0x3db1f2e2	0.08688904
144	0xbc7b29e0	-0.015329808
145	0xbc615913	-0.013754147
146	0x3caada2a	0.020855982
147	0x3d8f2843	0.06990101
148	0x3de74047	0.11291557
149	0xba17fa03	-0.00057974475
150	0xbde6c1bd	-0.112674214
151	0x3d1a3fd4	0.037658527
152	0x3dde93fb	0.10868069
153	0x3ca61320	0.020272791
154	0xbe226b9b	-0.1586136
155	0x3e2129a9	0.15738548
156	0xbcdce698	-0.026965424
157	0xbd8d4e98	-0.06899756
158	0xbde12d0c	-0.1099492
159	0x3dd6cb90	0.10488045
160	0x3e01fab3	0.1269329
161	0x3e1464f3	0.14491634
162	0xbe135d63	-0.14391093
163	0x3bd0c400	0.0063710213
164	0x3bdb5820	0.006693855
165	0x3e002369	0.12513508
166	0xbca7e860	-0.020496547
167	0x3d80087a	0.06251617
168	0x3dc11e4a	0.09429605
169	0x3e29c3a1	0.16578533
170	0x3dc9aa62	0.09846951
171	0x3dc05466	0.09391098
172	0x3d4ad4cc	0.049519345
173	0x3e036c89	0.12834372
174	0x3d85c7de	0.06532262
175	0x3e01c867	0.12674104
176	0x3dc83fde	0.09777807
177	0xbd4acddc	-0.04951273
178	0xbe01ec63	-0.1268783
179	0x3dd8a673	0.10578623
180	0x3e25575e	0.16146609
181	0x3dc19182	0.094515815
182	0xbdfaee64	-0.12252501
183	0xbb9729c0	-0.0046131313
184	0x3e050183	0.12988858
185	0x3db0bdfd	0.086299874
186	0xbe23c49b	-0.15992968
187	0x3dfc8394	0.12329784
188	0xbdfdb859	-0.12388677
189	0xbd787b20	-0.060664296
190	0xbd432450	-0.047642052
191	0xbe26d4da	-0.16292134
192	0x3b7824c0	0.0037863702
193	0xbd8433b0	-0.06455171
194	0xbdd6b16b	-0.104830585
195	0x3df6de8c	0.12054166
196	0x3d87b22e	0.06625782
197	0xbca1ab88	-0.019735113
198	0x3d7aaf9c	0.06120263
199	0x3ce60220	0.028077185
200	0xbdbf9c18	-0.093559444
201	0x3d3fe730	0.046851337
202	0xbd43b800	-0.047782898
203	0xbd72a2c6	-0.059237264
204	0x3c568770	0.013093814
205	0x3cbba898	0.02290754
206	0xbde1ed03	-0.110315345
207	0x3e103e6b	0.1408631
208	0x3dbd8f22	0.09255816
209	0x3df81ffa	0.12115474
210	0xbcdd5368	-0.02701731
211	0x3e08e7b5	0.13369639
212	0xbd4c70a0	-0.049912095
213	0xbdc62a46	-0.09676032
214	0x3d9ce062	0.07659985
215	0x3e1802f4	0.14844877
216	0x3c97a140	0.018509507
217	0x3cfb9160	0.030708969
218	0xbdc07fd3	-0.093993805
219	0xbcd93ab8	-0.026517257
220	0xbd75ecd0	-0.060040295
221	0xbdfebd83	-0.1243849
222	0xbd07a974	-0.033120587
223	0x3ddba8f2	0.10725583
224	0x3c94c3a0	0.018159688
225	0xbcff8440	-0.031190991
226	0x3e130ac7	0.1435958
227	0xbd07a74c	-0.03311853
228	0x3e1115e1	0.14168502
229	0x3ddd7cde	0.10814832
230	0xbdebbcbb	-0.11510607
231	0x3c4a4a30	0.012346789
232	0xbe19d543	-0.15022759
233	0x3e206ad7	0.15665756
234	0xbe11eac3	-0.1424971
235	0x3d74e304	0.05978681
236	0x3c9b7d20	0.018980563
237	0xbc3a22b0	-0.011360809
238	0xbdea38a8	-0.114365876
239	0xbc2249b0	-0.009905264
240	0xbe166390	-0.14686418
241	0x3de11a6e	0.10991369
242	0xbdd43298	-0.103612125
243	0x3dda19d2	0.10649456
244	0xbc214530	-0.009843156
245	0x3dfb2bda	0.122642234
246	0x3d1b3c60	0.037899375
247	0x3e0adad1	0.13560034
248	0x3dddbbea	0.108268574
249	0xbddf125b	-0.10892173
250	0xbe0e4a78	-0.13895595
251	0x3c04adf0	0.008098111
252	0x3c9e52b8	0.019326553
253	0x3e24fe9d	0.16112752
254	0xbcce5b88	-0.02519013
255	0xbcab6e00	-0.020926476

conv1.lin_l.bias f4 [32]
0	0x3e187178	0.14887035
1	0x3cf22176	0.029556971
2	0x3d1f4ae3	0.038889777
3	0x3d6ca38f	0.05777317
4	0xbe074c6b	-0.13212745
5	0xbe088bd1	-0.13334586
6	0x3deca604	0.115551025
7	0xbe2389ea	-0.15970579
8	0x3d1bac42	0.038006075
9	0xbd64ab46	-0.0558274
10	0x3d987b57	0.074454
11	0xbd0db98c	-0.03460078
12	0x3e1efc51	0.15525939
13	0xbdbbe0a7	-0.091737084
14	0x3e1f9b8d	0.15586682
15	0xbcca56ed	-0.024699653
16	0x3debfa22	0.115223184
17	0xbdb6aa7e	-0.089192376
18	0xbc2bb5d0	-0.010480359
19	0xbe223fcf	-0.15844654
20	0xbd9e756e	-0.07737242
21	0x3e15c16d	0.14624567
22	0xbac2997d	-0.0014846768
23	0x3d6d6d74	0.05796571
24	0xbdba6b4c	-0.091024965
25	0x3d69c6f6	0.05707451
26	0x3cf89708	0.030345455
27	0xbd9bfab6	-0.07616179
28	0x3df61462	0.120156065
29	0x3d5df847	0.054191854
30	0x3c9b30fa	0.018944252
31	0x3a216c78	0.00061578257

conv1.lin_r.weight f4 [32, 36]
0	0xbd170345	-0.036868352
1	0xbdbb506d	-0.091461994
2	0x3cd0a8de	0.025471147
3	0xbddab00a	-0.10678108
4	0x3dd8ad01	0.10579873
5	0x3e083439	0.13301171
6	0x3bf6f78d	0.0075368346
7	0x3e02764d	0.1274044
8	0x3dbe02c6	0.09277873
9	0x3dbd4322	0.0924132
10	0x3dd7fafa	0.10545917
11	0x3e2690a5	0.16266115
12	0xbdbe4916	-0.09291284
13	0x3c5bce80	0.013415933
14	0xbe259143	-0.16168694
15	0x3d8f2b80	0.06990719
16	0xbded8bfe	-0.11598967
17	0xbe06a3b8	-0.13148391
18	0x3d487554	0.048940018
19	0xbdce88f8	-0.100847185
20	0x3dffe482	0.12494756
21	0x3dddc362	0.10828282
22	0xbcb951c8	-0.022622004
23	0xbdcbb71e	-0.09947036
24	0x3de7c2b2	0.11316432
25	0x3d2f6bd4	0.042827442
26	0xbd2dbe20	-0.042417645
27	0x3e147633	0.14498214
28	0xbdee12e3	-0.11624696
29	0x3d94cba6	0.07265405
30	0xbe19c19a	-0.1501526
31	0x3d887952	0.06663765
32	0xbd4e5c00	-0.050380707
33	0x3b14e240	0.0022717863
34	0x3dd5d2ca	0.104405954
35	0x3d8513d2	0.06497921
36	0x3e015218	0.12628973
37	0x3dbf780a	0.093490675
38	0x3e13b2ff	0.1442375
39	0xbd78cd20	-0.060742497
40	0x3deca916	0.11555688
41	0x3e1ffa74	0.15622884
42	0x3d2725ec	0.04080765
43	0x3d3067fc	0.043067917
44	0xbcf4eab6	-0.029897075
45	0x3d83cfa0	0.06436086
46	0xbe2a14dc	-0.1660952
47	0xbde9ba98	-0.11412543
48	0xbe17743e	-0.14790437
49	0x3dab4f4e	0.083647355
50	0xbe0937c4	-0.13400179
51	0x3bf6db10	0.0075334385
52	0x3dc633be	0.09677838
53	0x3d0ff780	0.035148144
54	0x3e19134d	0.14948769
55	0xbe1a2c8f	-0.1505606
56	0x3e2964e5	0.16542394
57	0x3d43860c	0.04773526
58	0xbd5abab0	-0.053400695
59	0x3ce2c6b8	0.027682647
60	0x3db4365e	0.08799432
61	0x39bb8000	0.00035762787
62	0x3e0fc313	0.14039259
63	0xbd30d710	-0.04317385
64	0x3dfa96e2	0.1223581
65	0x3dedc7b6	0.116103575
66	0xbd594a3c	-0.05304931
67	0xbe05c55a	-0.13063565
68	0xbc5bd470	-0.013417348
69	0xbddd374e	-0.10801564
70	0xbdee3a8e	-0.11632262
71	0xbde4cd36	-0.111719534
72	0x3d041d0c	0.032254264
73	0x3ddd79a9	0.108142205
74	0x3be98426	0.007126349
75	0x3d064178	0.03277728
76	0x3dc98628	0.098400414
77	0x3cae6b0e	0.021291282
78	0x3dbef791	0.09324563
79	0x3d3e6ef3	0.04649253
80	0x3dcdeab5	0.100545324
81	0x3e07977d	0.13241382
82	0x3c9a6e68	0.018851474
83	0x3dd1312a	0.102144554
84	0x3d1db2ec	0.03850071
85	0xbe1a0834	-0.15042192
86	0xbe24625f	-0.1605315
87	0xbd39ea7b	-0.045389634
88	0x3d9ce328	0.07660514
89	0x3da6cab8	0.08144134
90	0x3db4e1ca	0.08832128
91	0x3c513f40	0.012771428
92	0x3cadc3e8	0.02121158
93	0xbc8e01e8	-0.017334893
94	0x3cf24418	0.029573485
95	0x3d8fc032	0.0701908
96	0x3d7ddc1c	0.06197749
97	0xbcb713d8	-0.02234833
98	0xbdf99d96	-0.1218826
99	0xbe0b5a42	-0.1360865
100	0x3d8db716	0.069196865
101	0xbb442ec0	-0.0029935092
102	0xbdd2d480	-0.102944374
103	0x3dbdf8e2	0.09275986
104	0xbdea3c2b	-0.114372574
105	0xbde76d63	-0.11300161
106	0xbd84c9f1	-0.0648383
107	0x3d2a4657	0.041570988
108	0xbd0e9471	-0.034809534
109	0x3d8e7879	0.06956572
110	0xbe0ee579	-0.13954724
111	0x3d9cf5f3	0.076640986
112	0xbcc9b446	-0.024622094
113	0x3e046bae	0.12931702
114	0xbdc4335e	-0.0958011
115	0xbc43bcdd	-0.011946884
116	0xbd259539	-0.040425513
117	0x3d9a4fe0	0.07534766
118	0x3d9d364a	0.076763704
119	0x3e17ca57	0.1482328
120	0x3b8ad120	0.0042363554
121	0xbe04318b	-0.12909524
122	0x3e116a73	0.14200763
123	0xbd6824c9	-0.056675706
124	0x3e27e3c5	0.16395481
125	0xbe123ddc	-0.1428141
126	0xbc4211f0	-0.011845097
127	0x3e066fff	0.1312866
128	0x3d97a82a	0.074051216
129	0xbd5ae2b6	-0.053438865
130	0xbe26798c	-0.16257304
131	0xbd2b9bdc	-0.041896686
132	0x3e276075	0.16345389
133	0xbdbafdc6	-0.09130435
134	0xbccc8df8	-0.02497004
135	0x3dc6e40e	0.09711467
136	0x3d961d08	0.07329756
137	0xbd113470	-0.0354504
138	0x3e090ec3	0.13384537
139	0xbe20b8f6	-0.15695557
140	0xbdf4168e	-0.119183645
141	0x3e0767a5	0.13223131
142	0xbcd47d36	-0.025938611
143	0xbc56191c	-0.01306751
144	0xbdbcf940	-0.09227228
145	0xbd26a720	-0.040686727
146	0xbde80723	-0.11329486
147	0x3d1812cc	0.0371273
148	0xbd40f2e6	-0.047106646
149	0xbe20a673	-0.15688495
150	0xbe0b86fc	-0.13625711
151	0x3de297ea	0.110641316
152	0xbd08cda0	-0.033399224
153	0xbcf8bbc0	-0.030362964
154	0xbe1e4acb	-0.15458219
155	0xbd816e7e	-0.06319903
156	0xbc08bc70	-0.008345708
157	0xbdf112fb	-0.11771198
158	0xbd025c9c	-0.0318266
159	0xbda93093	-0.08261218
160	0x3d9add96	0.075617954
161	0x3d39ed04	0.04539205
162	0xbe1996d6	-0.14998946
163	0xbd41f98c	-0.047357127
164	0xbdfeeb33	-0.124472044
165	0xbe1f340b	-0.15547197
166	0x3d7ff9c4	0.062494054
167	0x3dcca2f2	0.09992017
168	0xbc984d48	-0.018591538
169	0xbddd83f6	-0.10816185
170	0x3cb08168	0.02154608
171	0x3dade4ca	0.08490904
172	0x3dfbbea2	0.1229222
173	0xbd813888	-0.063096106
174	0x3d5236d0	0.051321805
175	0xbd10c24c	-0.035341546
176	0x3de6e37a	0.112738565
177	0xbd0e8fbc	-0.034805045
178	0xbe054fdb	-0.13018744
179	0x3e234541	0.15944387
180	0x3da43b9d	0.08019183
181	0x3deceb5c	0.11568329
182	0xbdf04530	-0.117319465
183	0x3d81229d	0.0630543
184	0x3d866cba	0.06563707
185	0xbdd595e4	-0.1042898
186	0xbd85135c	-0.06497833
187	0x3d9fe452	0.078072205
188	0x3c458eae	0.012057943
189	0xbd899e36	-0.067196295
190	0x3e1cec55	0.15324529
191	0xbe28570c	-0.16439456
192	0x3e0770d9	0.13226642
193	0x3e29087f	0.16507147
194	0x3dfa9130	0.122347236
195	0xbe232946	-0.15933713
196	0x3d7ffe50	0.06249839
197	0xbd926280	-0.07147694
198	0x3e249529	0.16072525
199	0x3e19607d	0.14978214
200	0xbdf8f15b	-0.1215541
201	0xbdd043e0	-0.10169196
202	0x3df2c522	0.11854006
203	0x3dd2df86	0.1029654
204	0x3d6b27bc	0.05741094
205	0xbdf6430b	-0.12024506
206	0x3e211e39	0.15734185
207	0x3de6fcde	0.11278699
208	0xbd907706	-0.07053952
209	0x3c8815e0	0.016611993
210	0xbd6130f6	-0.054978333
211	0x3e00728b	0.12543695
212	0xbde0da06	-0.10979085
213	0x3c8face8	0.017538503
214	0xbe1cc1e7	-0.15308343
215	0xbe222c1f	-0.15837143
216	0xbc990697	-0.0186799
217	0x3e03a55f	0.12856053
218	0xbd16fce1	-0.036862258
219	0xbde67cd1	-0.112542756
220	0xbdebc9d3	-0.11513104
221	0x3d2e5d5e	0.04256951
222	0xbda943da	-0.08264895
223	0x3dc90b03	0.098165534
224	0x3e15f5bf	0.14644526
225	0x3dd6b7ca	0.10484274
226	0xbe10f3d0	-0.14155507
227	0x3dc576a2	0.09641768
228	0xbdd2cad0	-0.1029259
229	0xbd3d73c6	-0.04625299
230	0xbdac146c	-0.08402333
231	0xbd871618	-0.06596011
232	0x3d3cc360	0.04608476
233	0x3e0cb1f9	0.13739766
234	0xbddf2f36	-0.10897677
235	0xbdc6aafe	-0.09700583
236	0xbdbcf6d3	-0.092267655
237	0xbcd680b8	-0.026184425
238	0x3daceb4a	0.08443315
239	0x3b2506c0	0.0025181025
240	0xbdc3995e	-0.09550737
241	0x3dc9da7a	0.09856124
242	0xbd6180ac	-0.05505435
243	0xbcfecc18	-0.031103179
244	0x3dc81b4a	0.0977083
245	0xbe18dd20	-0.14928102
246	0xbda5ceae	-0.08096062
247	0xbdddfc60	-0.10839152
248	0xbe1e84af	-0.15480302
249	0x3dde9472	0.108681574
250	0xbe2a04d6	-0.16603407
251	0x3d4b1fde	0.049590938
252	0xbdef1efe	-0.11675833
253	0xbe3bf1ae	-0.18353912
254	0xbdc1f176	-0.09469883
255	0x3d6b5950	0.057458222

conv2.lin_l.weight f4 [16, 32]
0	0x3de705f8	0.11280435
1	0xbe065571	-0.13118531
2	0x3e2216d3	0.15829019
3	0xbdba7f5b	-0.091063224
4	0xbe26af1f	-0.16277741
5	0x3e0035d3	0.12520532
6	0xbce542e0	-0.02798599
7	0x3d55cfc8	0.05220011
8	0xbc0bc070	-0.008529767
9	0x3cf56868	0.029957011
10	0xbd6d442c	-0.057926342
11	0x3e316e87	0.17327319
12	0x3da230aa	0.07919438
13	0x3cd110d0	0.025520712
14	0xbd49cea9	-0.049269352
15	0xbc2de339	-0.010613256
16	0x3c850590	0.016238004
17	0xbdeee422	-0.11664607
18	0x3bc07040	0.0058727562
19	0x3cc00368	0.023439124
20	0xbde5f183	-0.11227705
21	0xbe04b004	-0.1295777
22	0x3e26ad9d	0.16277166
23	0x3dc3ab8e	0.09554206
24	0xbd9ab860	-0.07554698
25	0xbd371bd5	-0.044704277
26	0xbcfa7790	-0.03057459
27	0x3e27abda	0.1637415
28	0xbc247f20	-0.010040075
29	0x3e320d5f	0.17387913
30	0xbdb84b3c	-0.08998725
31	0x3df53bc4	0.1197429
32	0xbdea8e20	-0.114528894
33	0xbd70bd73	-0.058774423
34	0xbe2643a1	-0.16236736
35	0xbe200842	-0.1562815
36	0x3d870d74	0.06594363
37	0x3e06db0f	0.13169502
38	0xbd973b86	-0.073844
39	0xbdb8a4bd	-0.09015796
40	0x3dd0a1ea	0.10187133
41	0xbc7acf00	-0.015308142
42	0xbdd4f25f	-0.10397791
43	0x3e2bbec5	0.16771992
44	0x3b46fc40	0.0030362755
45	0x3d0ecd1c	0.034863576
46	0x3d6ba727	0.057532456
47	0xbe22d2e0	-0.15900755
48	0xbe035380	-0.12824821
49	0xbd861eb6	-0.065488264
50	0x3ca3d480	0.019998789
51	0xbe270d4b	-0.16313665
52	0x3d559ea4	0.052153245
53	0xbd4e2370	-0.050326765
54	0xbdf70ec4	-0.12063363
55	0xb9f08c00	-0.00045880675
56	0x3e0fd195	0.14044793
57	0x3d934aad	0.07191978
58	0x3e14ee17	0.14543949
59	0x3e2056e8	0.15658152
60	0x3cb02778	0.021503195
61	0xbe0944f1	-0.13405205
62	0xbcaba638	-0.020953283
63	0xbc996005	-0.018722543
64	0x3e122cb6	0.14274868
65	0x3e1ed202	0.15509799
66	0xbb4618f2	-0.003022727
67	0x3d96a646	0.07355933
68	0x3e0ff58f	0.14058517
69	0xbd615acf	-0.055018242
70	0x3dd71782	0.10502531
71	0x3db9a224	0.09064129
72	0x3dc3fbfe	0.09569548
73	0xbdf10532	-0.11768569
74	0xbc6d4650	-0.014482096
75	0xbdd4d576	-0.10392277
76	0x3e0d6281	0.13807108
77	0xbe0e69bf	-0.13907526
78	0x3bfe3754	0.0077580605
79	0xbe2281da	-0.15869847
80	0x3ceb8048	0.028747693
81	0xbd58c4b4	-0.052921966
82	0x3d6d06a4	0.05786766
83	0x3e105c33	0.14097671
84	0xbdc04ebb	-0.09390017
85	0xbd722b24	-0.059123173
86	0x3de2f5ee	0.110820636
87	0x3d1fdab4	0.03902693
88	0xbe04fffa	-0.12988272
89	0x3daa2949	0.08308656
90	0x3dc1c9fa	0.09462352
91	0xbc9f53d5	-0.019449154
92	0x3e10498d	0.14090557
93	0xbdaa71bc	-0.08322474
94	0xbd4e7fe8	-0.05041495
95	0x3e1c8476	0.15284905
96	0xbe14a8b5	-0.14517482
97	0xbdfe1a18	-0.12407321
98	0x3dada0e9	0.08477957
99	0x3dcb4931	0.099260695
100	0xbdee54b2	-0.11637248
101	0xbe28787c	-0.16452211
102	0x3d81ea87	0.06343561
103	0xbe036f8b	-0.12835519
104	0xbe266cbc	-0.16252416
105	0x3c1618d0	0.009161189
106	0xbdb312cf	-0.08743822
107	0xbdd3085c	-0.10304329
108	0x3db51662	0.0884216
109	0xbe01eeda	-0.12688771
110	0x3b871d9b	0.0041234023
111	0xbdf65702	-0.12028314
112	0x3e0809db	0.1328501
113	0xbc686739	-0.014184766
114	0x3db640be	0.08899067
115	0x3e2e9ffd	0.17053218
116	0x3e01d737	0.12679754
117	0x3c9b4930	0.018955797
118	0x3de7dee8	0.11321813
119	0xbaf6da00	-0.001883328
120	0xbddd25b2	-0.107982054
121	0xbd86202e	-0.065491065
122	0xbe33c1b8	-0.17554367
123	0xbe10f853	-0.14157228
124	0x3e107c43	0.14109902
125	0x3cf55bb8	0.029950961
126	0x3e2cecd3	0.16887216
127	0x3d9eb51d	0.07749388
128	0xbe37e4ce	-0.17958376
129	0xbd2f6822	-0.04282392
130	0x3dcc72bb	0.099828206
131	0xbe2799c0	-0.16367245
132	0xbe30f882	-0.17282298
133	0xbb033edc	-0.002002648
134	0xbe2156fd	-0.1575584
135	0x3e2c97af	0.16854738
136	0x3d99cc1e	0.075096354
137	0x3ccc12d0	0.024911314
138	0xbe2c22d2	-0.16810158
139	0x3e31dedb	0.17370169
140	0x3d1f8670	0.03894657
141	0x3e23f6af	0.16012071
142	0xbd1e862d	-0.03870218
143	0x3e04f2cf	0.12983249
144	0x3e1cf7e7	0.15328942
145	0x3c9a2c63	0.018819993
146	0x3e14d1e9	0.145332
147	0xbd45a27c	-0.04825066
148	0xbd941631	-0.07230795
149	0x3dc2efaa	0.095183685
150	0xbdd951e7	-0.10611325
151	0xbe114011	-0.14184596
152	0x3d0a7524	0.03380312
153	0x3de13d23	0.10997989
154	0xbd87e59c	-0.066355914
155	0xbc5ee259	-0.01360377
156	0x3d936cb0	0.07198465
157	0xbe10847c	-0.14113039
158	0x3e0e0c21	0.13871814
159	0x3e00e1bd	0.12586112
160	0xbe2b5cd3	-0.16734628
161	0xbcd0377b	-0.02541708
162	0xbdb222f6	-0.086980745
163	0x3e2a49e5	0.16629751
164	0x3d91f068	0.07125932
165	0x3e04207b	0.12903015
166	0xbcaab304	-0.020837314
167	0x3d595214	0.05305679
168	0xbcb06f10	-0.021537334
169	0x3e16b7b5	0.14718516
170	0xbcf262ee	-0.029588189
171	0xbe1a4ee2	-0.15069154
172	0x3dadb96e	0.084826335
173	0x3dfff92e	0.12498699
174	0x3d5c4675	0.05377813
175	0xbe18ec17	-0.14933811
176	0xbdf0b98c	-0.1175414
177	0x3db4c52a	0.088266686
178	0x3d17e28c	0.037081286
179	0xbbe5fea0	-0.007018879
180	0xbd73f1e6	-0.059556864
181	0x3c8cefa0	0.017204106
182	0x3e1ea1fc	0.1549148
183	0xbd2f5570	-0.04280609
184	0x3d084bb8	0.033275336
185	0x3d74b832	0.059745975
186	0xbc530f80	-0.012882113
187	0xbe1a419b	-0.15064089
188	0x3c968c30	0.018377393
189	0x3e23a7c1	0.15981962
190	0xbdaeb91f	-0.08531403
191	0x3e07252c	0.13197774
192	0xbe03967b	-0.12850372
193	0x3d687442	0.056751497
194	0x3e144876	0.14480767
195	0xbd8bc6cb	-0.06825026
196	0xbcee8e48	-0.02912058
197	0xbd50541f	-0.050861474
198	0xbdeec2c9	-0.11658246
199	0xbdf6cf18	-0.12051219
200	0xbe347054	-0.17620975
201	0xbe081677	-0.1328982
202	0xbe366a97	-0.17814098
203	0xbd3a0fc0	-0.045425177
204	0x3dae3e12	0.08507933
205	0xbcb9e6d0	-0.022693068
206	0x3c2695d2	0.010167556
207	0x3d23178d	0.03981738
208	0xbd38ec5c	-0.045147285
209	0xbdd446c1	-0.10365058
210	0xbd89ff35	-0.0673813
211	0x3e27a1df	0.16370343
212	0xbe1276e2	-0.14303163
213	0x3b85c620	0.004082456
214	0xbe13bce1	-0.1442752
215	0xbe1c8c72	-0.1528795
216	0xbced9648	-0.029002324
217	0x3d88daa4	0.066823274
218	0x3df0798e	0.11741935
219	0x3c6ada6f	0.014334305
220	0xbd92cc2c	-0.07167849
221	0x3def19e6	0.116748616
222	0xbd91f736	-0.0712723
223	0x3dd995ad	0.106242515
224	0xbe09684b	-0.13418691
225	0xbe0a948e	-0.13533232
226	0x3db5615a	0.08856459
227	0xbdfd9675	-0.12382213
228	0x3c3af690	0.011411324
229	0xbd2a32b4	-0.04155226
230	0x3ca25e18	0.019820258
231	0xbe0a17ed	-0.1348569
232	0x3d38b8ec	0.04509823
233	0xbd18fdac	-0.037351295
234	0xbd2c44e2	-0.04205788
235	0x3d798b18	0.060923666
236	0x3d08fd38	0.033444613
237	0xba9a8000	-0.0011787415
238	0x3ce172b2	0.027520511
239	0xbcbb9211	-0.022896798
240	0x3de1f67a	0.1103334
241	0x3ac4effa	0.0015025132
242	0xbd4321dc	-0.047639713
243	0x3d2f3a40	0.04278016
244	0x3e0d9fa7	0.13830434
245	0x3c8f0ee8	0.017463163
246	0x3dbf5539	0.09342427
247	0xbe0a424c	-0.13501853
248	0xbe20a133	-0.15686493
249	0x3e21b540	0.15791798
250	0x3df10a1a	0.11769505
251	0x3e0cb639	0.13741387
252	0x3dde3792	0.10850443
253	0x3e24e9df	0.1610484
254	0xbd48806c	-0.048950598
255	0xbd889040	-0.066681385

conv2.lin_l.bias f4 [16]
0	0x3d82c733	0.063856505
1	0x3e1a18f9	0.15048589
2	0xbb935c31	-0.004497074
3	0xbcb018dd	-0.02149623
4	0x3e0349bd	0.12821098
5	0xbe0f0552	-0.13966873
6	0xbe2766d8	-0.16347826
7	0xbd253936	-0.040337764
8	0x3d15b811	0.036552493
9	0xbdf02a34	-0.117267996
10	0xbe034583	-0.12819485
11	0xbd9743c6	-0.07385974
12	0xbe1026ee	-0.1407735
13	0x3dad148e	0.08451186
14	0x3dcf0761	0.10108829
15	0x3da2c0d4	0.07946935

conv2.lin_r.weight f4 [16, 32]
0	0x3d9febdc	0.078086585
1	0x3e1b967a	0.15194121
2	0x398f3f00	0.00027322024
3	0x3e058854	0.13040286
4	0x3d3790eb	0.04481594
5	0x3d1dbf94	0.03851278
6	0xbdc3a064	-0.095520765
7	0x3cc71bcd	0.024305249
8	0x3e27d3f1	0.16389443
9	0x3da95b06	0.082693145
10	0xbdc7da67	-0.09758454
11	0x3c888dc8	0.016669169
12	0x3e12d291	0.14338137
13	0x3e3101e5	0.17285879
14	0x3dae0a9e	0.08498119
15	0x3da50b5e	0.08058809
16	0xbd4e3344	-0.05034186
17	0xbe2257a7	-0.15853749
18	0xbe18c323	-0.14918189
19	0xbe0e014e	-0.13867685
20	0xbdc4df0c	-0.09612855
21	0x3da8501a	0.08218403
22	0x3e246dd7	0.16057526
23	0x3d51ea88	0.051249057
24	0xbd17e010	-0.037078917
25	0xbdf766f5	-0.12080184
26	0x3e2e7b51	0.17039229
27	0x3de04b15	0.10951821
28	0xbe05a6cc	-0.13051909
29	0x3cb160ec	0.021652661
30	0x3e104c31	0.14091565
31	0xbd362c39	-0.044475768
32	0x3d078775	0.033088166
33	0xbe0d6239	-0.13807
34	0xbdc1e319	-0.094671436
35	0x3d9a3288	0.07529169
36	0x3c1a796a	0.009428361
37	0xbd8e29ab	-0.06941541
38	0xbe2c8c44	-0.16850382
39	0x3dcb49a5	0.09926156
40	0x3df158cb	0.11784514
41	0x3cfd4d6e	0.03092071
42	0x3dc0bc0a	0.094108656
43	0x3c96ead0	0.018422514
44	0xbe0490d0	-0.12945867
45	0xbe2176ad	-0.15767927
46	0x3e07c749	0.13259615
47	0xbe3c226f	-0.1837251
48	0x3cba6e50	0.02275768
49	0xbdf2b14a	-0.118502215
50	0x3d4d41ac	0.050111458
51	0x3d80ff08	0.06298643
52	0xbdf30ae6	-0.11867313
53	0x3dc7347e	0.09726809
54	0x3e14b362	0.14521554
55	0xbd71846c	-0.058964178
56	0x3dbc348c	0.0918971
57	0xbd9f2456	-0.077706024
58	0x3e1e5b05	0.15464409
59	0x3dfe2963	0.12410238
60	0x3ba172a0	0.0049269944
61	0xbc17f540	-0.009274781
62	0x3e06fdb6	0.1318272
63	0xbde2a806	-0.11067204
64	0xbdad8e0b	-0.08474358
65	0x3dc62c70	0.096764445
66	0xbcc370a6	-0.023857426
67	0x3dc27cc7	0.09496456
68	0xbd9f5c81	-0.077813156
69	0x3e028737	0.12746893
70	0xbddba23e	-0.107243046
71	0xbdf2facc	-0.11864242
72	0xbe2a3d9d	-0.16625066
73	0xbd94c146	-0.072634265
74	0x3de9ca07	0.11415487
75	0x3d378618	0.044805616
76	0x3e0eb829	0.13937439
77	0xbe25616a	-0.16150442
78	0xbcc26a68	-0.02373238
79	0x3d3fae99	0.04679737
80	0xbb2bf540	-0.002623871
81	0xbdea9117	-0.11453455
82	0xbda29dfe	-0.07940291
83	0x3df2c807	0.118545584
84	0xbe00d828	-0.12582457
85	0x3cf49b78	0.02985929
86	0xbce1e401	-0.027574541
87	0x3e070b0b	0.13187806
88	0x3d506804	0.050880447
89	0x3e1f9613	0.15584593
90	0xbe2d3fc1	-0.16918851
91	0x3c3279df	0.010893314
92	0xbd9cd717	-0.07658213
93	0x3dbfebc5	0.09371141
94	0x3df51a06	0.11967854
95	0xbdf0bb54	-0.1175448
96	0x3d15f39b	0.036609273
97	0xbe19946b	-0.14998023
98	0xbe14efe1	-0.14544632
99	0xbd63b8f6	-0.055596314
100	0x3ca66bf5	0.02031515
101	0xbdc7e2c0	-0.09760046
102	0x3dfa9725	0.1223586
103	0x3d421c77	0.047390427
104	0xbcaa0596	-0.020754617
105	0xbd49d264	-0.04927291
106	0xbda0e87e	-0.07856844
107	0x3e1fdae1	0.1561084
108	0xbe31dcf8	-0.17369449
109	0xbdf0e153	-0.11761727
110	0x3d747bef	0.059688505
111	0x3d90e781	0.07075406
112	0x3e2be66b	0.16787116
113	0x3ccfb3ea	0.025354344
114	0xbd9666d9	-0.073438354
115	0xbdca3642	-0.0987363
116	0xbca63928	-0.020290926
117	0xbcdaae90	-0.026694566
118	0xbd2a3f7a	-0.041564442
119	0xbd3ca474	-0.046055272
120	0x3df27a62	0.11839749
121	0x3df7be94	0.12096897
122	0x3e23971d	0.15975614
123	0x3e08fc31	0.13377453
124	0xbd76d1a0	-0.060258508
125	0x3d8fb915	0.070177235
126	0x3d27c374	0.040957883
127	0xbc953a51	-0.018216284
128	0xbdfe7b29	-0.12425835
129	0xbdcaddb2	-0.09905566
130	0xbdecc8ee	-0.11561762
131	0x3d294bfc	0.04133223
132	0x3dbf74b4	0.09348431
133	0xbe237d5d	-0.15965791
134	0xbc8aa4b1	-0.016924234
135	0x3e05e136	0.13074192
136	0x3e0fc00a	0.14038101
137	0x3dc8cd28	0.098047554
138	0xbdfe4648	-0.12415749
139	0x3d09d6dc	0.03365217
140	0xbdfeb042	-0.12435962
141	0x3de18260	0.11011195
142	0x3d047a07	0.032342937
143	0x3a02093d	0.0004960483
144	0xbd736e56	-0.059431396
145	0xbdc023a6	-0.093817994
146	0xbbc9b040	-0.006155044
147	0xbc236319	-0.009972357
148	0xbda90120	-0.08252168
149	0xbe28c253	-0.16480379
150	0x3e1cd8af	0.15317033
151	0x3dc3e8b6	0.095658705
152	0xbe3555a7	-0.17708455
153	0x3dd71508	0.10502058
154	0xbdb420f4	-0.08795348
155	0xbe1c74af	-0.15278886
156	0xbd3be7dc	-0.045875415
157	0xbd2387ae	-0.039924316
158	0x3defbbcc	0.11705741
159	0x3e2f93c6	0.17146215
160	0xbd8f2315	-0.06989113
161	0x3e138121	0.14404728
162	0x3d0d0297	0.034426298
163	0x3e2cfce6	0.16893348
164	0x3ddc49b6	0.10756247
165	0x3b1daae2	0.0024058153
166	0x3d3fee22	0.04685796
167	0x3db4de5a	0.08831473
168	0x3de03e7a	0.109494165
169	0xbe2fe4cd	-0.17177124
170	0xbe172c02	-0.14762881
171	0x3da97dfa	0.08275981
172	0xbd5de3a2	-0.054172166
173	0x3d09bbfc	0.03362654
174	0xbd651a2a	-0.055933155
175	0xbe298212	-0.16553524
176	0xbd446010	-0.047943175
177	0xbe280d81	-0.16411401
178	0xbdfe8e02	-0.124294296
179	0xbd9bc955	-0.076067604
180	0xbdf72218	-0.1206705
181	0xbde9f4ce	-0.11423646
182	0xbdab2876	-0.08357327
183	0xbe006c16	-0.12541232
184	0x3da908a4	0.08253601
185	0xbda01d96	-0.07818143
186	0xbe21eb72	-0.15812472
187	0x3daba68f	0.08381378
188	0x3caf3a68	0.021390155
189	0xbd5becd8	-0.05369267
190	0x3d2e0129	0.042481575
191	0xbe3821b6	-0.1798161
192	0x3dfe8500	0.124277115
193	0x3e373329	0.1789061
194	0xbe08c30d	-0.13355656
195	0xbdefeeae	-0.117154464
196	0x3df5703c	0.11984298
197	0xbc99877a	-0.018741358
198	0xbe08af7f	-0.13348196
199	0xbe0b34b5	-0.13594325
200	0x3d4a1f32	0.049346156
201	0x3e2984d9	0.16554584
202	0xbc640439	-0.013917022
203	0xbdbee648	-0.093212664
204	0x3e260481	0.16212656
205	0x3e174ac2	0.14774612
206	0x3e03eaa9	0.12882484
207	0xbd7cfbed	-0.061763693
208	0x3d17a534	0.037022784
209	0x3e1970cb	0.14984433
210	0x3e0836ef	0.13302206
211	0xbe1641ea	-0.14673582
212	0x3e12cfd9	0.143371
213	0x3e011fb1	0.12609746
214	0xbd99a030	-0.075012565
215	0x3dcd578a	0.100264624
216	0xbe2ebdc9	-0.17064585
217	0xbd53da27	-0.05172172
218	0xbbdebda0	-0.0067975074
219	0xbe181939	-0.14853372
220	0x3d477500	0.048695564
221	0xbc021d2f	-0.007941528
222	0x3ccd1181	0.02503276
223	0x3e16386a	0.14669958
224	0x3d94cd06	0.072656676
225	0x3c804e77	0.015662415
226	0xbe230058	-0.159181
227	0xbdc8581f	-0.09782433
228	0xbe2cade9	-0.16863216
229	0x3d9ffaa7	0.0781148
230	0xbe239c96	-0.15977702
231	0x3dfef4e2	0.124490514
232	0xbc0ea51b	-0.008706356
233	0xbda1a6d9	-0.07893152
234	0x3deaafa6	0.114592835
235	0xb90a1400	-0.00013168156
236	0x3dc5a8b6	0.0965132
237	0xbda1a71c	-0.07893202
238	0xbcf7624d	-0.03019824
239	0xbd8b1491	-0.06791032
240	0xbe0a7412	-0.1352084
241	0x3dfac3ef	0.122444026
242	0xbe29cdcc	-0.16582412
243	0x3d69cc79	0.057079766
244	0xbbda5900	-0.0066634417
245	0x3dca15b2	0.09867419
246	0x3e22877a	0.15871993
247	0x3da5b4a2	0.080910936
248	0xbdc504e8	-0.096200764
249	0xbe15be1b	-0.146233
250	0xbdb62781	-0.088942535
251	0xbdaffcaf	-0.085931174
252	0x3e20ac33	0.15690689
253	0x3e0f8737	0.14016424
254	0x3d0f319e	0.034959428
255	0x3e2dbb46	0.1696597
